model.pth (torch, 893265 bytes, 16 tensors)

conv1a.weight f4 [16, 1, 3, 3]
0	0x3e9841df	0.29737756
1	0xbe864044	-0.26220906
2	0xbe15134b	-0.14558141
3	0x3d137d93	0.03600843
4	0x3d81109b	0.06301995
5	0x3ea635af	0.32462832
6	0xbdb7232f	-0.089422576
7	0xbd2bc53a	-0.041936137
8	0x3e880f64	0.26574242
9	0x3ea8584a	0.3287986
10	0x3e8bd108	0.27307916
11	0xbe8052a9	-0.25063065
12	0x3df34049	0.11877496
13	0xbe85bf0b	-0.26122317
14	0x3d89848c	0.067147344
15	0x3cfc27e5	0.030780742
16	0x3e9c7fcb	0.30566248
17	0x3df75079	0.12075896
18	0x3e703e0e	0.23461172
19	0xbcc79dff	-0.02436733
20	0xbe65ee5e	-0.22454211
21	0x3e1cfc61	0.1533065
22	0x3e83eb91	0.2576566
23	0xbdfe7fb2	-0.124267
24	0xbe90ba13	-0.28266963
25	0x3e058a0f	0.13040946
26	0x3eb65f4c	0.3561958
27	0xbe9afb49	-0.3026984
28	0x3daae7cd	0.08344994
29	0x3dd95f3e	0.10613869
30	0x3e144a61	0.14481498
31	0x3e37eafe	0.17960736
32	0x3eb1ea50	0.3474908
33	0x3df4e85f	0.11958384
34	0x3e8509a5	0.2598392
35	0xbe5ffe95	-0.21874459
36	0x3e5a947a	0.21345702
37	0x3dd5319f	0.10409855
38	0x3eab7e50	0.33494806
39	0x3e9c7160	0.30555248
40	0xbd1124d5	-0.035435516
41	0xbc18121a	-0.0092816595
42	0xbe9c0768	-0.304744
43	0x3e6e9932	0.23300627
44	0x3e9961d6	0.29957455
45	0x3d9689f5	0.07350532
46	0x3e0ef053	0.13958864
47	0x3e2c889c	0.16848987
48	0x3db84ac7	0.08998638
49	0xbe1d094c	-0.15335578
50	0x3e8ff11d	0.28113642
51	0xbe7f2f70	-0.2492044
52	0x3dbb6396	0.09149854
53	0x3c8e91ab	0.017403444
54	0xbd8f1bd0	-0.06987727
55	0xbda13be3	-0.078727506
56	0xbdc4a46b	-0.09601673
57	0x3e64851a	0.22316399
58	0xbdcdeb4e	-0.100546464
59	0x3cee135f	0.029061971
60	0x3dbfbe51	0.09362472
61	0x3e869232	0.26283413
62	0xbe7b203e	-0.24524018
63	0xbe858ac0	-0.2608242
64	0x3dd0c1da	0.10193224
65	0x3e3274a9	0.17427315
66	0x3e96587b	0.2936438
67	0xbcc99968	-0.024609283
68	0xbe917092	-0.28406197
69	0x3e830b6f	0.2559466
70	0x3db462c0	0.088078976
71	0x3e865f8d	0.26244774
72	0xbd40f65f	-0.047109958
73	0x3c691298	0.0142256245
74	0xbe707577	-0.2348231
75	0x3cd7be33	0.026335811
76	0x3e43bebe	0.19115731
77	0xbe51cb78	-0.20487773
78	0xbe21efa1	-0.15814067
79	0xbe267520	-0.16255617
80	0xbd37a3a5	-0.044833798
81	0xbd95f2b0	-0.073216796
82	0xbe24877f	-0.16067313
83	0x3de77773	0.1130208
84	0x3ea43853	0.32074222
85	0xbd863462	-0.0655296
86	0x3dfaaf3f	0.12240457
87	0xbe0fbd49	-0.1403705
88	0x3dd21678	0.10258192
89	0x3e58c544	0.21169001
90	0xbea13882	-0.31488425
91	0xbdc04622	-0.09388377
92	0x3e811fcf	0.2521958
93	0x3e2339cd	0.15940018
94	0xbdc51882	-0.09623815
95	0x3d0d444c	0.03448896
96	0xbe2ce9fa	-0.1688613
97	0xbe2b156f	-0.16707395
98	0xbe83fce2	-0.25778872
99	0x3e9c9255	0.30580392
100	0xbe4164e4	-0.18886143
101	0xbdb8aa1c	-0.09016821
102	0xbea1269e	-0.31474775
103	0xbe73e567	-0.23817979
104	0xbdffd6d2	-0.124921456
105	0xbd9af080	-0.07565403
106	0xbe56445a	-0.20924512
107	0x3ea67f87	0.3251917
108	0x3defe3de	0.11713384
109	0x3e22ebbe	0.15910241
110	0x3d95039a	0.072760776
111	0x3c98c896	0.018650334
112	0x3de62094	0.112366825
113	0xbcb83546	-0.02248634
114	0x3df58c4b	0.119896494
115	0x3e94d8f6	0.29071778
116	0xbb897531	-0.0041948785
117	0x3e849f54	0.25902808
118	0xbde86fe5	-0.11349467
119	0x3eac0433	0.33596954
120	0xbe6b70f0	-0.22992301
121	0x3e928cc8	0.28623033
122	0xbb6dcc21	-0.0036285
123	0xbde9479d	-0.11390612
124	0x3e8599a2	0.26093775
125	0x3a9d8cfb	0.0012020165
126	0x3c6035fb	0.013684745
127	0xbeb1e95c	-0.34748352
128	0x3d84e8f0	0.06489742
129	0xbe84e330	-0.2595458
130	0x3ea35909	0.31903866
131	0x3e65a766	0.22427139
132	0x3e178743	0.14797692
133	0x3b8f9e9a	0.0043829205
134	0x3c1e6a93	0.009668964
135	0xbe0bdcc1	-0.1365843
136	0xbdbe3b92	-0.09288706
137	0xbea75ed4	-0.32689536
138	0xbdc0eec0	-0.09420538
139	0x3c2b6ae7	0.010462499
140	0x3e0f96bd	0.14022346
141	0xbeb0ff48	-0.34569764
142	0x3dc4e064	0.096131116
143	0xbe68f824	-0.22750908

conv1a.bias f4 [16]
0	0x3e84156f	0.25797603
1	0x3e0127ef	0.1261289
2	0xbc009de4	-0.007850144
3	0xbdeb12ae	-0.11478172
4	0x3ea46880	0.32110977
5	0xbe9e13cc	-0.3087448
6	0x3e905523	0.28189954
7	0xbe022dd3	-0.12712793
8	0x3cffb763	0.031215375
9	0xbea7943a	-0.32730275
10	0x3dd9e94d	0.10640202
11	0xbe1854c5	-0.14876087
12	0x3ea2da0d	0.31806985
13	0x3e9748c4	0.29547703
14	0xbd49c04d	-0.049255658
15	0xbe911a58	-0.2834041

conv1b.weight f4 [16, 16, 3, 3]
0	0xbd574dcb	-0.052564424
1	0x3d26e9c8	0.040750295
2	0x3daef890	0.08543503
3	0x3d9744a9	0.07386143
4	0x3d7a21cb	0.061067384
5	0x3d91752f	0.07102429
6	0x3bf02f88	0.007329885
7	0xbd3f6b78	-0.04673335
8	0xbd7f963f	-0.062399145
9	0x3bfeb629	0.00777318
10	0x3d106e65	0.03526153
11	0xbd2e8c15	-0.04261406
12	0xbd3f7186	-0.046739124
13	0x3d321fcc	0.043487355
14	0xbd26d9a1	-0.04073489
15	0xbd4d9eed	-0.05020039
16	0xbd27aa3f	-0.040933844
17	0x3d88b57d	0.06675241
18	0x3dc9ab62	0.09847142
19	0x3dd9df3f	0.10638284
20	0xbb3c3973	-0.0028720766
21	0xbca090b8	-0.019600257
22	0x3cd9f06a	0.026603896
23	0x3d8aa805	0.067703284
24	0xbd814b0b	-0.063131414
25	0x3b37326c	0.0027953638
26	0xbd453111	-0.048142496
27	0xbc7a9e3b	-0.015296514
28	0xbd2f887d	-0.042854775
29	0x3caab1b1	0.020836683
30	0x3db9bfe9	0.09069807
31	0xbd0c9c7a	-0.034328915
32	0xbd783da2	-0.060605653
33	0x3d3e6c95	0.04649027
34	0x3cbbf74b	0.022945067
35	0xbd42e4c6	-0.047581457
36	0xbd6b3573	-0.05742402
37	0x3d5f0409	0.054447208
38	0xbd926c01	-0.07149506
39	0x3c7439f2	0.014906393
40	0x3ccd4b5c	0.025060348
41	0x3d6e9fb3	0.05825777
42	0xbc958460	-0.018251598
43	0x3d5d6b72	0.054057546
44	0x3d91a88a	0.071122244
45	0xbb087a8f	-0.0020825004
46	0xbd9d5544	-0.07682279
47	0x3d793cea	0.060849108
48	0x3d5f0c31	0.054454986
49	0x3d8e0ad5	0.0693566
50	0x3c834c62	0.016027633
51	0x3d896023	0.0670779
52	0x3dc24384	0.09485534
53	0x3d9ae141	0.07562495
54	0x3d2331e5	0.039842505
55	0x3d726657	0.05917963
56	0x3cb4bfe1	0.022064151
57	0x3d4eadfb	0.05045889
58	0xbd7ea91f	-0.062173005
59	0xbd38e45e	-0.045139663
60	0x3d3a7601	0.045522694
61	0xbdc5d1c3	-0.096591495
62	0xbd06b3e3	-0.032886397
63	0x3d831e8d	0.064023115
64	0x3cac31c2	0.02101982
65	0x3cf13830	0.029445738
66	0x3d9a06e8	0.075208485
67	0xbd5848c0	-0.052803755
68	0xbd47b8d8	-0.048760265
69	0x3d8a8744	0.06764081
70	0xbb9bc2c1	-0.004753441
71	0x3c54c5c0	0.0129866
72	0x3d6d2ca7	0.057903912
73	0xbd27f1f1	-0.041002218
74	0xbd82f3e1	-0.063941725
75	0xbba74519	-0.0051046726
76	0x3d778201	0.060426716
77	0x3cc91625	0.024546692
78	0x3d39953f	0.045308348
79	0xbd045f98	-0.032317728
80	0xbd71a600	-0.0589962
81	0x39a1abdc	0.00030836358
82	0x3d7bd4d3	0.061482262
83	0x3da935de	0.082622275
84	0x3d885b8d	0.06658087
85	0xbc1a569b	-0.009420062
86	0x3c9c6a91	0.019093784
87	0xbbef9660	-0.0073116273
88	0x3d867fde	0.065673575
89	0x3d53eef8	0.05174157
90	0xbd11fb62	-0.035640128
91	0xbdd179ac	-0.10228285
92	0xbd360653	-0.044439625
93	0x3cac9749	0.021068232
94	0xbd91d8fd	-0.07121465
95	0x3ce158dc	0.027508192
96	0x3da1277d	0.0786886
97	0x3aa6c6ee	0.0012724081
98	0xb9a15c93	-0.00030777286
99	0xbda8cd4b	-0.082422815
100	0xbda93138	-0.08261341
101	0xbd9613ec	-0.073280185
102	0x3d60877d	0.05481671
103	0x38b6ccf8	8.716615e-05
104	0x3d68cd14	0.056836203
105	0xbda6907a	-0.081330255
106	0x3cdbe353	0.026841795
107	0xbc48d00c	-0.0122566335
108	0xbd376846	-0.044777177
109	0x3da82ab6	0.082112715
110	0xbd88a48a	-0.06672008
111	0x3d26217e	0.040559284
112	0x3cabc979	0.020970093
113	0x3d814d2c	0.063135475
114	0xbda20797	-0.07911604
115	0xbd7072ad	-0.058703113
116	0x3d91d217	0.071201496
117	0x3cdf57b2	0.027263496
118	0x3d9d7490	0.07688248
119	0xbd6aabe3	-0.05729283
120	0xbd90ed3f	-0.07076501
121	0xbd37f9d9	-0.044916008
122	0xbc96a186	-0.018387567
123	0x3cae39b3	0.021267748
124	0x3d9118a9	0.07084782
125	0x3d015cb6	0.031582557
126	0x3d15b104	0.03654577
127	0x3d96e438	0.07367748
128	0xbd067e06	-0.03283503
129	0x3b6f646f	0.003652837
130	0xbcdcbd4d	-0.026945734
131	0xbc036a4e	-0.0080209505
132	0xbb4df719	-0.00314278
133	0xbdad77d8	-0.08470124
134	0xbda42848	-0.080154955
135	0xbd8b7a35	-0.068104185
136	0xbbb7a81d	-0.0056047575
137	0x3c953082	0.018211607
138	0x3d6e41ff	0.058168408
139	0x3c25a953	0.010111171
140	0x3d642fa9	0.055709515
141	0xbcbd1ac1	-0.023084046
142	0x3d89b26b	0.06723484
143	0xbd4b6332	-0.049655147
144	0x3d8460e1	0.06463791
145	0x3a671147	0.0008814525
146	0x3c213273	0.009838688
147	0xbd83bf66	-0.06432991
148	0x3daadcc3	0.08342888
149	0x3cb4890a	0.022038002
150	0xbd2c24b8	-0.042027205
151	0xbc7a3e52	-0.015273647
152	0xbda17cd3	-0.078851365
153	0xbd39e4b1	-0.045384113
154	0xbd2ead18	-0.042645544
155	0xbd5d46fc	-0.054022774
156	0x3d81578a	0.06315525
157	0x3d73ec37	0.059551444
158	0x3c57193e	0.013128577
159	0xbccde4c9	-0.025133507
160	0x3d60f99e	0.054925554
161	0x3da542ca	0.0806938
162	0xbc66b969	-0.014082291
163	0xbd83b02b	-0.06430086
164	0xbd842dac	-0.06454024
165	0xbd611827	-0.054954674
166	0x3ce8fe88	0.028441682
167	0x3b967b5b	0.004592342
168	0xbda1ea9d	-0.07906077
169	0x3c744567	0.014909125
170	0x3da6c66a	0.08143313
171	0x3c0211ce	0.007938815
172	0xbcfc5031	-0.030799957
173	0x3d82eb87	0.063925795
174	0x3dafbfa4	0.085814744
175	0x3d90027a	0.07031722
176	0xbd2d5b6b	-0.04232351
177	0x3d2e0c01	0.042491917
178	0xbcfdcc50	-0.030981213
179	0xbd36ccdb	-0.04462896
180	0x3d3dae22	0.046308644
181	0xbd74cf88	-0.05976823
182	0xbc2b6f98	-0.010463618
183	0xbda04071	-0.07824791
184	0xbd88478c	-0.066542715
185	0x3d16eafc	0.036845192
186	0xbc1c4068	-0.00953684
187	0xb7ad8d8b	-2.0689118e-05
188	0x3da78d39	0.08181233
189	0xbd1247e6	-0.0357131
190	0x3c84f867	0.016231729
191	0x3d779024	0.060440198
192	0xbd177253	-0.036974262
193	0x3ccfcef4	0.025367238
194	0xbd19c56a	-0.037541784
195	0xbc5434f8	-0.012952082
196	0xbd93555f	-0.071940176
197	0x3cc53878	0.024074778
198	0x3ccc3109	0.024925726
199	0xbc1dc564	-0.009629581
200	0x3d995e38	0.07488674
201	0xbc12f6b2	-0.00896995
202	0xbd76243b	-0.060093146
203	0x3d9dd690	0.0770694
204	0x3d9fcede	0.07803129
205	0xbcb93a99	-0.02261095
206	0x3dad224d	0.08453808
207	0xbc104324	-0.00880507
208	0x3d2abfb2	0.04168672
209	0x3d35cfe1	0.044387702
210	0x3c66bd15	0.014083167
211	0x3c9b96eb	0.018992862
212	0x3cc9fbb6	0.024656158
213	0xbc8b0d00	-0.016973972
214	0x3ce32c4f	0.027731089
215	0xbd06eb09	-0.03293899
216	0x3cd97a5e	0.026547607
217	0x3d9f5992	0.07780756
218	0x3ca20024	0.019775458
219	0xbda9c419	-0.08289356
220	0xbdad2a9e	-0.08455394
221	0x3cc6ed9d	0.024283225
222	0xbdac604f	-0.08416807
223	0xbda394d1	-0.07987369
224	0x3c501870	0.012701139
225	0xbd5d36a3	-0.054007184
226	0x3d37ca64	0.04487075
227	0xbd9ecd3a	-0.077539876
228	0x3c6f7a8b	0.014616619
229	0x3d053f84	0.032531276
230	0xbc17c9a0	-0.00926438
231	0x3cee774d	0.029109621
232	0xbd336901	-0.04380131
233	0x3d496848	0.049171716
234	0x3da498a3	0.08036926
235	0xbdb0af37	-0.086271696
236	0x3d59d551	0.05318195
237	0xbd2c1f24	-0.042021886
238	0xbd879657	-0.06620472
239	0x3d895b35	0.067068495
240	0x3ca880e8	0.02056928
241	0x3d823be9	0.06359083
242	0xbc17d28b	-0.009266506
243	0x3d9b1321	0.07572008
244	0xbb4d8338	-0.003135873
245	0xbae37172	-0.0017352535
246	0xbd8e0141	-0.06933833
247	0x3d829296	0.06375615
248	0x3cb4e4b3	0.022081709
249	0xbd716eac	-0.058943436
250	0xb77dcaee	-1.5127223e-05
251	0x3d6b3a53	0.05742867
252	0x3ce8d1db	0.02842038
253	0x3d746db9	0.059674952
254	0xbd8d78f1	-0.06907833
255	0x3d0b6592	0.034032412

conv1b.bias f4 [16]
0	0xbcad4d15	-0.02115492
1	0x3b5df173	0.0033865839
2	0xbd2d11e7	-0.0422534
3	0x3d566a67	0.052347567
4	0x3d3da61c	0.046300992
5	0xbca4ba14	-0.02010826
6	0xbd92d966	-0.07170372
7	0xbd8fbe31	-0.07018698
8	0xbd1d76d1	-0.03844339
9	0xbd5ebae4	-0.05437745
10	0x3b056bef	0.0020358523
11	0xbd8289ec	-0.06373963
12	0xbd8bd34f	-0.06827413
13	0x3d6909fd	0.05689429
14	0x3c2096ec	0.009801608
15	0x3d11ff20	0.035643697

conv2a.weight f4 [32, 16, 3, 3]
0	0x3d21145c	0.039326057
1	0xbd0dd338	-0.034625262
2	0x3cac3e21	0.02102572
3	0x3cdae18d	0.02671888
4	0x3bbb3082	0.0057125697
5	0x3addc15b	0.0016918586
6	0x3cb122ef	0.021623103
7	0x3db7cbb0	0.08974397
8	0x3d8c580e	0.068527326
9	0xbdba4f8a	-0.09097202
10	0x3c413c2e	0.011794133
11	0xbbfbdafa	-0.007686016
12	0x3da9bdd6	0.082881615
13	0xbd57c26f	-0.05267566
14	0xbd7c7805	-0.061637897
15	0xbbb68fad	-0.0055713267
16	0x3bde9777	0.0067929584
17	0x3b56c3b5	0.003277046
18	0xbd0d0989	-0.03443292
19	0xbd6c30d0	-0.05766374
20	0x3d98076d	0.07423291
21	0x3d177b3d	0.036982764
22	0x3cc2a318	0.02375941
23	0x3c436bbe	0.011927543
24	0x3cc34768	0.02383776
25	0x3d17493b	0.036935072
26	0xbda06aa6	-0.078328416
27	0x3d038d8b	0.032117408
28	0x3d8c8724	0.068617135
29	0x3c2efa80	0.010679841
30	0x3c55b8e7	0.013044572
31	0xbdc2903a	-0.09500165
32	0xbdabb2ac	-0.08383688
33	0xbd9afc2d	-0.0756763
34	0x3c99ab93	0.01875857
35	0xbd8e5af0	-0.06950939
36	0xbd7f9887	-0.06240132
37	0xbd109c11	-0.035305087
38	0x3d547abe	0.05187487
39	0xbc1ea2a6	-0.009682333
40	0xbdaadc6a	-0.08342822
41	0xbb8b0e64	-0.004243659
42	0x3d0102d4	0.031496838
43	0xbd81b26e	-0.06332861
44	0xbc12e59a	-0.008965874
45	0xbadc9ec2	-0.0016831981
46	0xbd088a2f	-0.033334907
47	0xbd4a912e	-0.04945486
48	0xbc5dbfec	-0.013534527
49	0x3ca96084	0.020675905
50	0xbc520d76	-0.012820592
51	0x3c794f3e	0.015216647
52	0x3d69ffd5	0.057128746
53	0x3dab82af	0.08374535
54	0xbba4bcf7	-0.005027409
55	0xbd8aa8fc	-0.067705125
56	0xbdc45198	-0.09585875
57	0xbc45eece	-0.012080861
58	0xbd432ab6	-0.047648154
59	0x3d655eff	0.0559988
60	0x3d95800f	0.07299816
61	0xbc4c5eea	-0.012473801
62	0x3c8d8733	0.017276382
63	0x3d226c6d	0.039654184
64	0xbce97858	-0.028499767
65	0x3d7ff5a1	0.06249011
66	0x3cffb844	0.031215794
67	0x3d683ea5	0.056700367
68	0x3da2185e	0.07914804
69	0x3c79084c	0.015199732
70	0xbcbc5d02	-0.022993568
71	0xbd8c043e	-0.06836747
72	0x3ceb7619	0.028742837
73	0xbd8f22ff	-0.06989097
74	0x3d9d6a0c	0.076862425
75	0x3cad3fa5	0.021148512
76	0x3d7a24ee	0.061070375
77	0xbd8fdee8	-0.07024938
78	0x3cca0793	0.024661815
79	0xbd86cc7a	-0.065819696
80	0xbd94ede0	-0.072719336
81	0xbd41afa0	-0.04728663
82	0x3d61a3eb	0.055087965
83	0x3d293bd3	0.04131682
84	0x3db62d1e	0.08895324
85	0x3c119aea	0.008887032
86	0xbd73cdbf	-0.059522387
87	0xbd8f49e5	-0.06996516
88	0xbd9133fa	-0.07089992
89	0xbcade80a	-0.021228809
90	0xbd9b78c7	-0.07591396
91	0x3d581232	0.052751727
92	0xbd2ed80b	-0.042686503
93	0xbdaaa09e	-0.083314165
94	0xbd457b63	-0.048213374
95	0x3d1cf2f7	0.038317647
96	0xbc8189e9	-0.015812831
97	0xbca2542f	-0.019815532
98	0xbd3086f7	-0.043097463
99	0xbbaca723	-0.0052689477
100	0xbd16c98e	-0.03681331
101	0xbddeab23	-0.108724855
102	0x3d8ae436	0.06781809
103	0x3b8f699b	0.004376603
104	0xbd86a7dc	-0.065749854
105	0x3c8f84c7	0.017519368
106	0xbd08ea86	-0.033426784
107	0x3c83cfd4	0.016090311
108	0x3d21cdb0	0.0395028
109	0xbd82d38d	-0.06388006
110	0xbdc35c0a	-0.095390394
111	0x3d6e8316	0.058230482
112	0x3be78dd5	0.0070664682
113	0x3cda1d9a	0.026625443
114	0xbd870610	-0.06592953
115	0x399548a8	0.00028473628
116	0x3d3f2ce6	0.046673678
117	0xbc003c4c	-0.007826876
118	0xbd71d85f	-0.05904424
119	0xbd83dde7	-0.06438809
120	0xb9e4e4f0	-0.0004365812
121	0xbca0281c	-0.019550376
122	0xbd1791e5	-0.03700437
123	0x3d256b36	0.040385447
124	0x3da63932	0.08116378
125	0x3d655b16	0.05599507
126	0xbd4ad4f9	-0.049519513
127	0xbdbba098	-0.0916149
128	0xbd1404b5	-0.0361373
129	0x3cd8e8cb	0.026478192
130	0xbd9b544d	-0.075844385
131	0x3d854d2d	0.06508861
132	0x3d34a78f	0.04410511
133	0x3dd4b7a1	0.10386587
134	0x3d04e7b0	0.032447517
135	0x3d94f112	0.07272543
136	0xbd701424	-0.058612958
137	0xbc82e3cd	-0.015977765
138	0x3cd70212	0.026246104
139	0xbd85fb47	-0.06542068
140	0xbce7c7a8	-0.028293446
141	0xbbc4b86b	-0.0060034296
142	0x3c576d36	0.0131485965
143	0x3cf00585	0.029299507
144	0xbcc7298f	-0.024311809
145	0xbd40f26c	-0.04710619
146	0xbd11a742	-0.0355599
147	0xbd998b1a	-0.07497235
148	0xbda9128a	-0.08255489
149	0xbd1a79dc	-0.03771387
150	0xbd6e354e	-0.058156304
151	0xbcc5a2fe	-0.024125572
152	0x3d2fc0bb	0.04290841
153	0xbd627631	-0.055288497
154	0x3b07c38f	0.0020715927
155	0x3d5fd930	0.054650486
156	0xbacc09f5	-0.0015566932
157	0x3b0f98a4	0.002191105
158	0xbd23aba7	-0.039958622
159	0xbd8150fd	-0.063142754
160	0xbcef61ed	-0.0292215
161	0xba49d68d	-0.0007699512
162	0x3dba6752	0.09101738
163	0x3cc5324b	0.024071833
164	0x3d04bd81	0.032407288
165	0xbd9a16bd	-0.07523868
166	0x3d2b2441	0.04178262
167	0x3bc3d979	0.0059768525
168	0xbc8c9314	-0.017159976
169	0xbd86a24b	-0.06573924
170	0xbd0bd707	-0.034140613
171	0x3d624a8e	0.055246882
172	0x3d51e0b8	0.0512397
173	0xbd9930f4	-0.0748004
174	0x3d053c0d	0.032527972
175	0xbdacb47c	-0.08432862
176	0xbc8ca1ae	-0.017166939
177	0x3d891e4d	0.066952325
178	0x3d686231	0.056734268
179	0xbd47419a	-0.048646547
180	0xbd01b9bc	-0.03167127
181	0x3d4d8fb1	0.050185863
182	0x3ce5863b	0.028018108
183	0xbc890f14	-0.016730823
184	0x3d4f0461	0.050541285
185	0x3d8cf97c	0.06883523
186	0xbc534848	-0.012895651
187	0xbd896e35	-0.067104734
188	0x3d9408e2	0.07228257
189	0xbd882854	-0.06648317
190	0x3d758563	0.05994166
191	0xbd7fbf25	-0.06243815
192	0xbdbbd356	-0.091711685
193	0x3d8b2a88	0.067952216
194	0xbd83325f	-0.06406092
195	0xbda407d5	-0.08009306
196	0xbd5153dd	-0.05110537
197	0x3dcb7745	0.09934858
198	0x3d05e0da	0.03268514
199	0xbcfcc089	-0.030853527
200	0xbd6b7f90	-0.0574947
201	0xbd7334a0	-0.05937636
202	0x3c13fc3a	0.0090323035
203	0xbcac3e07	-0.02102567
204	0xbd452776	-0.048133336
205	0x3ced9e84	0.02900625
206	0x3cfbe9e1	0.03075117
207	0x380208c1	3.1002568e-05
208	0xbd5ce375	-0.053927857
209	0x3ce391e4	0.027779527
210	0xbcac3905	-0.021023283
211	0xbcb7b577	-0.022425396
212	0x3b332c60	0.0027339682
213	0x3d6b0896	0.057381235
214	0x3da7e012	0.08197035
215	0xbd78ec7b	-0.0607724
216	0xbd4abc47	-0.04949596
217	0x3ce62023	0.028091496
218	0xbd532b2e	-0.05155485
219	0xbc47023e	-0.012146531
220	0x3d72340d	0.05913167
221	0x3d05c070	0.032654226
222	0x3ce99501	0.028513433
223	0xbd992c24	-0.07479122
224	0xbc94f7cd	-0.018184567
225	0xb99c3104	-0.00029791158
226	0xbbfe6c41	-0.0077643697
227	0xbd81dbf0	-0.06340778
228	0x3d8792b0	0.06619775
229	0xbd95fa6e	-0.07323156
230	0x3d0c59eb	0.03426544
231	0x3a96fa69	0.001151872
232	0x3cb896f7	0.022532923
233	0xbcabcbab	-0.02097114
234	0x3d68f6bc	0.05687593
235	0x3d6c32d0	0.057665646
236	0x3b7a9901	0.003823817
237	0xbd032ee9	-0.03202716
238	0xbd659fc6	-0.056060575
239	0x3d2e6ee0	0.042586207
240	0xbba38b46	-0.004990968
241	0x3c830c6a	0.01599713
242	0x3cf9daa9	0.030499773
243	0x3cf6028f	0.030030517
244	0x3ce47565	0.02788801
245	0xbc03bf11	-0.008041159
246	0xbd078ca0	-0.033093095
247	0x3c9c48a8	0.019077614
248	0xbd9c50f6	-0.076326296
249	0x3d7a8c67	0.061169054
250	0x3db0c210	0.086307645
251	0xbd66781e	-0.056266896
252	0x3ce02a81	0.027364017
253	0xbc770e68	-0.015079118
254	0x3d8f4c25	0.06996945
255	0xbd774858	-0.060371727

conv2a.bias f4 [32]
0	0x3ad7477b	0.0016424501
1	0xbd867a77	-0.06566327
2	0xbd909fd2	-0.07061733
3	0xbd802311	-0.062566884
4	0x3b85ccef	0.004083268
5	0xbd62e930	-0.055398166
6	0x3dbf81c6	0.09350924
7	0x3d48f941	0.049065832
8	0xbcdb1487	-0.026743187
9	0xbb761de3	-0.0037554435
10	0x3ce1260c	0.027483962
11	0xbcd03027	-0.025413586
12	0xbc612863	-0.013742539
13	0x3c59b453	0.013287622
14	0x3d4cfcdd	0.050045837
15	0x3d2c4fd3	0.042068314
16	0x3d4d9b57	0.05019697
17	0xbda1b6b1	-0.07896174
18	0x3d3c919c	0.0460373
19	0xbd2b85ba	-0.04187558
20	0x3d7952a7	0.06086984
21	0xbd8ffeb4	-0.07031003
22	0xbcf3eb1e	-0.029775199
23	0xbda0a561	-0.078440435
24	0xbd407355	-0.04698499
25	0x3d2b9e85	0.041899223
26	0x3d111210	0.035417616
27	0x3cfca556	0.030840557
28	0x3c8a5dd1	0.016890438
29	0xbbe14788	-0.0068749823
30	0x3a384db9	0.00070306245
31	0x3d8bdbdf	0.068290465

conv2b.weight f4 [32, 32, 3, 3]
0	0x3ccd10b4	0.025032379
1	0x3d278847	0.04090145
2	0x3d48648a	0.048924007
3	0x3d70825f	0.05871808
4	0xbccdb601	-0.0251112
5	0xbd5bf997	-0.053704824
6	0xbccf2fd3	-0.025291359
7	0xbc1f9e4d	-0.009742332
8	0xbcb131fc	-0.02163028
9	0xbcf5251b	-0.02992492
10	0x3d0ae1fc	0.03390692
11	0xbc99ab16	-0.018758338
12	0xbd8a84d7	-0.067636184
13	0xbd68e707	-0.05686095
14	0x3cec45d4	0.02884189
15	0xbc04c6c2	-0.008104028
16	0x3d2f9261	0.042864207
17	0x3d440a1f	0.047861215
18	0x3cad2e92	0.02114037
19	0xbbc63997	-0.0060493457
20	0x3ce9bdb3	0.028532838
21	0x3cd34a81	0.025792362
22	0xbc2b30cb	-0.010448645
23	0xbad2479b	-0.0016043069
24	0xbca75b5d	-0.020429308
25	0x3c92183e	0.017833825
26	0x3cb7a0c1	0.02241552
27	0x3b1c178c	0.0023817746
28	0x3d68469f	0.056707975
29	0x3cfc6e16	0.030814212
30	0x3d40e08e	0.047089152
31	0x3c825e4c	0.015914105
32	0x3ca8cec7	0.020606412
33	0xbd3e56d3	-0.04646952
34	0x3cd9de2f	0.026595203
35	0x3cf2a016	0.02961735
36	0xbcaf75f5	-0.021418551
37	0xbd4cce61	-0.050001506
38	0xbd0be7b9	-0.034156535
39	0x3d284d28	0.041089207
40	0x3cfd025f	0.03088492
41	0xbcc82e81	-0.024436237
42	0xbc84fd9c	-0.016234212
43	0x3d44aca2	0.048016198
44	0x3c0d26cb	0.008615206
45	0x3c81ef6e	0.01586124
46	0x3d199125	0.037491936
47	0xbcf5b5c5	-0.029993901
48	0x3ccae341	0.024766566
49	0xbd5445e1	-0.051824454
50	0x3baf3af7	0.0053476053
51	0xbd2a0e05	-0.041517276
52	0xbd546604	-0.051855102
53	0xbd46b35e	-0.0485109
54	0x3d31ca91	0.043406073
55	0xbccdb6ec	-0.025111638
56	0xbd3264c3	-0.043553125
57	0xbd301e92	-0.042997904
58	0xbd227690	-0.03966385
59	0x3d141c73	0.036159944
60	0xbd38133c	-0.04494022
61	0xbc3f0cb2	-0.011660742
62	0xbd23accc	-0.039959714
63	0x3c54ac3e	0.012980519
64	0x3c84c45b	0.01620691
65	0x3b6c5cf0	0.0036066137
66	0x3cd5bf9b	0.026092341
67	0x3d0c567b	0.03426216
68	0xbd455b7b	-0.048182946
69	0xbc779952	-0.015112238
70	0xbd0fac4d	-0.03507643
71	0x3d02d3d8	0.03194031
72	0xbc9ec395	-0.01938037
73	0xbc2e8b30	-0.010653302
74	0x3d2402cc	0.04004173
75	0xbcb58bc8	-0.02216138
76	0xbc9f57df	-0.01945108
77	0xbb9b5295	-0.004740069
78	0xba7204e8	-0.00092322985
79	0x3d1373b6	0.035999022
80	0xbcbd4889	-0.023105877
81	0x3c032ecc	0.008006763
82	0xbc01ead6	-0.007929524
83	0xbc9a170a	-0.018809814
84	0x3d73adc6	0.059491895
85	0x3d7d5bb2	0.061855026
86	0xbd194dc6	-0.037427686
87	0xbc4d30c8	-0.012523837
88	0xbd74329a	-0.05961857
89	0x3be05dd7	0.006847124
90	0xbcea7669	-0.028620915
91	0xbd4ee5f5	-0.050512273
92	0xbca4b677	-0.020106537
93	0x3d243ac9	0.040095124
94	0x3c92d6ca	0.017924685
95	0x3beec83c	0.0072870534
96	0x3d2cc111	0.04217631
97	0x3b75a3cf	0.003748167
98	0xbc6d1ea6	-0.014472639
99	0xbca1153a	-0.019663442
100	0x39e608b9	0.00043875517
101	0x3c7caa5e	0.015421478
102	0x3bd261c0	0.006420344
103	0x3d866d5a	0.06563826
104	0x3cf007ea	0.029300649
105	0x3cd1a47a	0.025591124
106	0xbac77e53	-0.0015220143
107	0x3ac43367	0.0014968932
108	0xbd1d0598	-0.038335413
109	0x3cd914e8	0.026499227
110	0xbd644248	-0.055727273
111	0xbd15e5de	-0.03659617
112	0x3cceb7e4	0.02523417
113	0xbd2eea5b	-0.042703968
114	0xbc0181a2	-0.007904442
115	0x3cea3ce1	0.028593482
116	0xbc039a88	-0.008032449
117	0xbd18cf87	-0.03730729
118	0x3ccfc7be	0.0253638
119	0xbd608e81	-0.054823402
120	0xbd053ad1	-0.032526795
121	0x3a176be8	0.0005776272
122	0x3d37b053	0.04484589
123	0x3d3e4f93	0.046462607
124	0x3d01fc75	0.031734902
125	0x3d1ccaef	0.03827947
126	0x3b075c4d	0.002065438
127	0x3c67c031	0.014144943
128	0xbd0e11c4	-0.03468491
129	0xbd1d4bd7	-0.038402405
130	0xbd79a03c	-0.060943827
131	0xbd814143	-0.06311276
132	0xbd396ae2	-0.045267947
133	0xbc0e4e53	-0.008685666
134	0xbce53970	-0.02798149
135	0xbd458ece	-0.048231892
136	0xbd147011	-0.036239687
137	0xbd19e36c	-0.037570402
138	0x3d008689	0.031378303
139	0xbb3a9e83	-0.0028475828
140	0xbc943ca4	-0.018095322
141	0x3b9828b6	0.004643525
142	0xbbd4c878	-0.0064936243
143	0xbd554d5e	-0.052075736
144	0xbbb08097	-0.005386423
145	0x3d50b420	0.05095303
146	0xbc3b4bd6	-0.011431655
147	0x3d03aa22	0.032144673
148	0xbcca8caa	-0.024725277
149	0xbc602e93	-0.013682979
150	0x3d39b77d	0.045341004
151	0xbaeac62c	-0.0017911843
152	0x3d1d4fcb	0.038406175
153	0xbd4273eb	-0.04747383
154	0xbc930943	-0.017948752
155	0xbd6d1bf6	-0.057887994
156	0xbd4f742e	-0.050647907
157	0xbd5c35e0	-0.053762317
158	0x3d5478f6	0.05187317
159	0xba50ffc6	-0.00079726835
160	0x3cc769b5	0.024342397
161	0xbc19fbe7	-0.009398437
162	0xbd5e4e07	-0.05427363
163	0xbcb2207c	-0.021744005
164	0x3c894b11	0.016759427
165	0x3d1da779	0.038489792
166	0xbbc31a9d	-0.0059541003
167	0xbcddf5b0	-0.027094692
168	0x3ccc618f	0.024948863
169	0x3b2de730	0.0026535504
170	0x3cf441aa	0.029816467
171	0x3d53cb16	0.05170735
172	0x3ceacb48	0.028661385
173	0xbd313d02	-0.043271072
174	0xbd2c0745	-0.04199912
175	0x3c5ccc97	0.013476512
176	0xbd2fc1a3	-0.042909276
177	0x3d245e57	0.040129032
178	0x3c9f34d7	0.019434376
179	0x3ba92f83	0.0051631345
180	0xbd0d2561	-0.034459475
181	0xbcf05e88	-0.029341951
182	0x3c8ae3a7	0.016954256
183	0xbb7e8b3f	-0.0038840321
184	0x3a54414f	0.000809689
185	0x3ca24f22	0.019813124
186	0x3d3e44b8	0.046452254
187	0x3d01a947	0.031655576
188	0xbcc7a9ae	-0.024372902
189	0x3c71c97d	0.014757511
190	0x3d15bf2f	0.03655928
191	0xbd2c6d45	-0.042096395
192	0xbc60d56a	-0.013722757
193	0xbd468fe4	-0.04847707
194	0x3cbae0e9	0.022812324
195	0xbd1c39f4	-0.038141206
196	0xbd2f8678	-0.04285285
197	0xbbf7494b	-0.007546579
198	0x3d14f8b6	0.03637
199	0xbd42fd09	-0.047604594
200	0x3cbec8b6	0.023289066
201	0x3cebb21d	0.028771454
202	0xbd2e388e	-0.042534404
203	0x3d3113c2	0.043231733
204	0xbd599767	-0.053122904
205	0xbd40f15b	-0.047105175
206	0x3d69a658	0.057043403
207	0xbca2cf19	-0.019874142
208	0xbd54de58	-0.051969856
209	0xbd1be6a4	-0.038061753
210	0xbd32abc8	-0.043620855
211	0x3ba4c1e9	0.0050279987
212	0x3a9f7e21	0.0012168327
213	0x3bc369fb	0.0059635616
214	0x3d0af120	0.03392136
215	0x3d6225a8	0.055211693
216	0x3d47089e	0.048592202
217	0x3cfae0b3	0.030624723
218	0xbba281e7	-0.004959333
219	0x3c9073bd	0.017633313
220	0xbbb7482a	-0.0055933194
221	0xbd441e56	-0.047880493
222	0x3b1db56b	0.0024064432
223	0xbd57fd1e	-0.052731626
224	0xbcb072cf	-0.02153912
225	0xbce87ad0	-0.028378874
226	0xbd234a3a	-0.03986571
227	0xbd042b80	-0.032268047
228	0xbd453e29	-0.048154984
229	0xbc23a446	-0.009987896
230	0xbd0565f7	-0.032567944
231	0x3cd50490	0.026003152
232	0xbd0f4fc6	-0.034988187
233	0x3d3eb90d	0.046563197
234	0x39f8e803	0.00047475108
235	0xbceb6f8d	-0.028739715
236	0x3cc21de4	0.023695894
237	0xbd06b485	-0.032887
238	0xbc603ea7	-0.0136868125
239	0xbd5e3343	-0.054248106
240	0xbd1ce01c	-0.038299665
241	0x3d2cf656	0.04222711
242	0xbd7b1212	-0.06129653
243	0xbd56017c	-0.05224751
244	0x3c29aa1a	0.010355497
245	0xbd2cf028	-0.04222122
246	0x3c89a1c1	0.016800763
247	0x3d5371ba	0.05162213
248	0x3c031fdb	0.0080032
249	0x3c29adb8	0.010356359
250	0xbd1c9cde	-0.038235538
251	0xbd216746	-0.03940513
252	0x3d3f44b1	0.04669637
253	0x3cad3471	0.02114317
254	0xba6a7f70	-0.0008945381
255	0xbd5f80df	-0.05456626

conv2b.bias f4 [32]
0	0x3d74e24a	0.05978612
1	0x3c69c0a9	0.014267125
2	0xbd34c56b	-0.044133585
3	0xbd43f02b	-0.047836464
4	0x3d371aed	0.044703413
5	0xbd205b33	-0.039149474
6	0x3d5d25f7	0.053991284
7	0xbc624dd7	-0.013812504
8	0xbd8d0994	-0.068865925
9	0xbce91212	-0.028451
10	0x3cac7795	0.021053115
11	0x391ebf2e	0.00015139274
12	0xbccb7af6	-0.024838906
13	0x3d2a97f0	0.041648805
14	0xbba7b535	-0.005118037
15	0x3c9676b5	0.01836715
16	0xbadb678c	-0.0016739233
17	0xbd40247f	-0.046909805
18	0xba9f521e	-0.001215521
19	0x3d4f3159	0.05058417
20	0xba9c91df	-0.0011945328
21	0xbd3dcffc	-0.046340927
22	0xbd28cdf6	-0.041212045
23	0xbc9bf242	-0.019036416
24	0xbcc75484	-0.024332292
25	0xbd3c9d77	-0.046048608
26	0xbd7b3ec8	-0.06133917
27	0xbd124cc7	-0.03571775
28	0xbbece38a	-0.007229273
29	0x3aa24c8f	0.0012382435
30	0x3b8492a5	0.0040458017
31	0x3d0a8633	0.03381939

conv3a.weight f4 [64, 32, 3, 3]
0	0xbcaa7891	-0.020809444
1	0x3ced72e4	0.028985448
2	0x3c1c2eac	0.009532612
3	0x3d378dec	0.04481308
4	0x3d336847	0.04380062
5	0xbba32be4	-0.0049795974
6	0xbcfffcad	-0.031248415
7	0xbd7ec928	-0.062203556
8	0x3cc4da8e	0.024029996
9	0x3d0c5462	0.03426016
10	0xbcca0e87	-0.02466513
11	0x3c48b813	0.012250918
12	0x3b867bd1	0.0041041155
13	0x3ba1bf08	0.004936103
14	0xbcff9386	-0.031198274
15	0x3d30f1bb	0.043199282
16	0xbc6bb0c3	-0.014385405
17	0xbd8142a0	-0.06311536
18	0xbcf7862d	-0.030215347
19	0x3d25ca06	0.040475868
20	0x3d1ea246	0.038728975
21	0x3d467249	0.048448835
22	0xbce19e55	-0.027541319
23	0x3d80d993	0.06291499
24	0xbc755e9a	-0.014976168
25	0x3d2a9231	0.041643325
26	0xbd206524	-0.039158955
27	0xbc343aec	-0.011000376
28	0x3d00b6df	0.0314244
29	0x3cf9465e	0.030429062
30	0x3d363db4	0.04449244
31	0x3d36e886	0.044655345
32	0x3d1c4951	0.038155857
33	0x3d80833a	0.062750295
34	0x3d320cb3	0.043469142
35	0xbd0f41e4	-0.034974948
36	0x3d40864a	0.047003068
37	0xbd373df8	-0.044736832
38	0x3d8c239a	0.06842728
39	0xbd18f0cc	-0.037339017
40	0xbc913a82	-0.017728094
41	0x3c6e10d7	0.014530382
42	0xbb3e6106	-0.002904953
43	0x3d104d7e	0.035230152
44	0xbd6fe5e5	-0.058568854
45	0xbd6ea7b9	-0.05826542
46	0x3c96efb4	0.018424846
47	0x3cfcd94b	0.030865332
48	0x3b2cf7c1	0.002639279
49	0x3cca2a00	0.02467823
50	0xbbcf4908	-0.0063258447
51	0xbd0237a5	-0.031791348
52	0xbd43efc4	-0.04783608
53	0xbcd6690c	-0.026173137
54	0x3ccb5fab	0.024825891
55	0xbd5180a5	-0.051148076
56	0xbcafbae5	-0.021451423
57	0x3d07f4b7	0.033192363
58	0xbd335632	-0.043783374
59	0xbcb67f80	-0.022277594
60	0xbcceb18d	-0.025231147
61	0x3d34bcb1	0.044125263
62	0xbd0a728d	-0.03380065
63	0x3c41763f	0.011807977
64	0x3d5b694b	0.053567212
65	0xbc8c905f	-0.017158685
66	0x3c55d58c	0.013051402
67	0x3bef85ee	0.007309667
68	0xbc54aaed	-0.012980205
69	0xbd353593	-0.044240545
70	0x3d770dc5	0.060315866
71	0x3cdea575	0.027178505
72	0x3d517086	0.0511327
73	0xbd1b8ae8	-0.03797427
74	0x3cb2fda9	0.02184947
75	0xbd45bfcf	-0.048278626
76	0xbd48d557	-0.04903158
77	0x3d16eb85	0.036845703
78	0x3ca2c365	0.019868562
79	0xbd0ff2d6	-0.035143696
80	0xbd20f63f	-0.03929734
81	0x3d727133	0.059189986
82	0xbd557565	-0.05211391
83	0x3c98b431	0.01864061
84	0xbcf9fd31	-0.030516239
85	0x3bfca4a7	0.007710058
86	0xbce5d660	-0.028056324
87	0x3d127b3d	0.03576206
88	0xbd4ecfcf	-0.05049115
89	0xbd1ae9d5	-0.037820656
90	0x3ba2279c	0.0049485695
91	0x3c894434	0.016756155
92	0xbc9a17bd	-0.018810147
93	0x3b3ba9c5	0.0028635126
94	0x3d48d52c	0.04903142
95	0x3d43e2c7	0.047823694
96	0xbc75f0b0	-0.015010998
97	0xbcd514a1	-0.026010813
98	0xbc9da4f3	-0.019243693
99	0xbcf0e49f	-0.02940589
100	0xbc14a112	-0.009071605
101	0xbd1c0a6a	-0.03809587
102	0xbb443c25	-0.0029943075
103	0xbca91c05	-0.020643244
104	0xbb846d39	-0.0040413407
105	0x3d62c42e	0.055362873
106	0x3c71bf2e	0.014755053
107	0x3ba857af	0.005137406
108	0x3b5e5227	0.0033923478
109	0x3c0526f9	0.008126968
110	0x3d692e44	0.056928888
111	0xbcc76dae	-0.024344292
112	0xbd41f216	-0.04735001
113	0xbc21dd90	-0.009879485
114	0xbd4972d1	-0.049181763
115	0x3d05c9d3	0.032663178
116	0x3b0b4afa	0.0021254406
117	0x3b0bb6a5	0.0021318581
118	0xbb35ed55	-0.002775987
119	0x3cec2a31	0.028828712
120	0xbbdbe212	-0.0067102993
121	0xbd4920d7	-0.049103584
122	0xbd74fcbb	-0.059811335
123	0x3c3d3143	0.011547389
124	0xbd810702	-0.06300165
125	0xbb09e542	-0.002104119
126	0x3ce8999f	0.028393565
127	0xbcc5f579	-0.024164902
128	0xbd66710a	-0.056260146
129	0x3c4efd92	0.012633698
130	0xbd572b19	-0.052531336
131	0x3cf153f1	0.029458972
132	0xbd35d688	-0.044394046
133	0x3ccf1322	0.025277678
134	0x3d22cdfe	0.03974723
135	0x3c6a44a4	0.014298592
136	0x3cb9c675	0.02267764
137	0x3cd553a9	0.026040869
138	0x3c9406e5	0.018069694
139	0x3d63d666	0.05562439
140	0xbc876c0c	-0.016531013
141	0xbd8bccf3	-0.068262
142	0x3d5338c4	0.051567808
143	0x3d22a6e0	0.039709926
144	0xbc29843c	-0.010346469
145	0xbd6cee0c	-0.057844207
146	0x3cbac020	0.02279669
147	0x3d1bb166	0.038010977
148	0x3c7bb2d0	0.015362456
149	0x3d5e274a	0.054236688
150	0xbcaedfff	-0.021347044
151	0x3ce46d5f	0.027884183
152	0x3d03b958	0.03215918
153	0x3d0fd0a4	0.035111085
154	0xbc8ffb45	-0.01757587
155	0xbc48f508	-0.012265451
156	0xbd0d3662	-0.03447569
157	0xbcc7b2af	-0.024377195
158	0x3d8e4c9f	0.06948208
159	0x3aaebc54	0.0013331273
160	0xbcb5e798	-0.022205159
161	0xbd63b521	-0.05559266
162	0xbb494325	-0.0030710187
163	0x3ca136c7	0.01967944
164	0xbd1d58fe	-0.038414948
165	0xbd00f99a	-0.03148804
166	0x3c87927b	0.01654934
167	0xbd6392ea	-0.05556003
168	0x3b4eb2e4	0.0031539733
169	0x3cf3155d	0.029673273
170	0xbd5edb25	-0.05440821
171	0x3d2dee07	0.04246333
172	0x3c2adba5	0.010428344
173	0x3cd60609	0.026125925
174	0x3cda2170	0.026627272
175	0x3d2f3df2	0.042783685
176	0xbd65cb62	-0.056102164
177	0xbd2d2e85	-0.042280693
178	0x3c79d686	0.0152489
179	0x3d3bed0b	0.04588036
180	0x3be89a08	0.00709844
181	0x3c8f7fa6	0.017516922
182	0xbcd38eb7	-0.025824888
183	0xbc1e99b6	-0.009680202
184	0xbd22de7e	-0.039762966
185	0x3d4372b8	0.047716826
186	0xbd502347	-0.050814893
187	0xbd48c39c	-0.049014673
188	0xbd8f6cb3	-0.070031546
189	0xbd33ea52	-0.043924637
190	0xbcf6ed54	-0.030142464
191	0xbd1106d7	-0.035406914
192	0xbcb85fd5	-0.022506634
193	0xbba584bc	-0.0050512236
194	0x3be3d896	0.0069533093
195	0x3b25052a	0.002518008
196	0x3d0fed76	0.03513857
197	0x3d2d809c	0.04235898
198	0x3d08b6e7	0.033377554
199	0x3d227171	0.039658967
200	0xba675bf7	-0.00088256545
201	0x3c0cb9ae	0.008589191
202	0xbb099f28	-0.0020999406
203	0xbd4dbcf7	-0.05022904
204	0xbd287fcd	-0.041137505
205	0x3cbf8a32	0.023381326
206	0xbbb8eb0f	-0.0056432555
207	0x3b575dca	0.00328623
208	0x3a3532a3	0.00069121475
209	0xbbbe4fd3	-0.0058078556
210	0x3b81790b	0.003951197
211	0xba070ea2	-0.0005152022
212	0xbd288e09	-0.04115108
213	0x3d48a912	0.048989363
214	0x3c4db20d	0.012554658
215	0x3d1fe484	0.03903629
216	0xbd712045	-0.058868665
217	0xbc8fc7f7	-0.017551405
218	0xbd618f09	-0.05506805
219	0xbbca182d	-0.0061674328
220	0xbd4ba69f	-0.04971945
221	0x3d498c9f	0.049206372
222	0x3d7730f7	0.06034943
223	0x3d499ed0	0.04922372
224	0x3cd00f7e	0.025398012
225	0x3d331e46	0.043730043
226	0x3d872a0f	0.06599819
227	0xbd41bfc4	-0.047302023
228	0xbb9d4c61	-0.004800365
229	0xbd160076	-0.036621533
230	0x3c5815d7	0.013188801
231	0x3d2b03e2	0.04175175
232	0xbd5832cc	-0.05278282
233	0x3be89ed4	0.007099012
234	0x3d844197	0.06457823
235	0x3d5fd9bb	0.054651003
236	0x3c230e27	0.009952105
237	0xbd1dfd88	-0.038571864
238	0x3ce2a69d	0.027667338
239	0xbcbf7abb	-0.023373952
240	0xbc109542	-0.008824648
241	0x3c9a0386	0.018800508
242	0xbc538fb0	-0.012912676
243	0x3d0ddbb3	0.03463335
244	0x3cec3891	0.028835567
245	0xbd08afe9	-0.033370886
246	0x3b263270	0.0025359653
247	0xbd41a70b	-0.047278445
248	0x3c106616	0.008813402
249	0x3c5f5ce3	0.013632986
250	0xbc933d1e	-0.017973479
251	0xbac17815	-0.0014760519
252	0x3bbbd847	0.0057325694
253	0xbd2865cf	-0.041112717
254	0x3d558b00	0.052134514
255	0xbd1388e2	-0.036019213

conv3a.bias f4 [64]
0	0x3d3eaea7	0.04655328
1	0x3d467bee	0.048458032
2	0xbc290b17	-0.010317585
3	0xbb1df958	-0.002410492
4	0xbd3ef234	-0.0466177
5	0x3cd9bfe6	0.026580762
6	0xbbcd523f	-0.006265908
7	0x3d43467d	0.047674645
8	0x3cf9b7ca	0.030483145
9	0xbbe7c3c6	-0.0070728986
10	0x3d242d21	0.0400821
11	0xbd4b1fcd	-0.049590874
12	0x3bb8dfbb	0.005641905
13	0xbcc2bfb8	-0.02377306
14	0x3a58a6fa	0.00082646275
15	0xbcf1dee3	-0.029525226
16	0x3d440bef	0.047862943
17	0x3cc0fbb3	0.02355752
18	0x3d4b3c4f	0.04961806
19	0x3d3c2400	0.04593277
20	0x3c354bb8	0.011065416
21	0xbd0040dc	-0.031311855
22	0xbcd18aa4	-0.025578804
23	0xbd4bfd7e	-0.049802296
24	0x3c8cc864	0.017185397
25	0x3d27e829	0.04099289
26	0x3c693aec	0.0142352395
27	0xbb699188	-0.0035639722
28	0xbc5248b5	-0.0128347175
29	0xbd2a9436	-0.04164525
30	0x3d6e86b0	0.058233917
31	0xbca8c28d	-0.020600582
32	0xbcf1c3bb	-0.029512277
33	0x3b77c21c	0.0037804907
34	0x3c0068df	0.007837503
35	0x3d269504	0.040669456
36	0x3d501553	0.050801586
37	0x3c5a2fee	0.013317091
38	0xbcd311ea	-0.025765378
39	0x3d4befc0	0.04978919
40	0x3d25522d	0.040361572
41	0xbcb8986d	-0.02253362
42	0xbc38759e	-0.011258511
43	0x3ca3cf54	0.019996323
44	0xbc54112c	-0.012943547
45	0x3d4a8df0	0.04945177
46	0x3d10d0d4	0.035355404
47	0x3d137d29	0.036008034
48	0x3ae8f5ba	0.0017773428
49	0x3cbec6af	0.0232881
50	0x3d0b742c	0.034046337
51	0x3c284070	0.010269269
52	0x3d1c33e8	0.03813544
53	0xbc82eacb	-0.015981099
54	0x3ce808ff	0.028324602
55	0xbb9ae4dd	-0.0047269897
56	0x3d5178d8	0.051140636
57	0x3d5fd394	0.054645136
58	0xbd15401e	-0.0364381
59	0xbc8c259d	-0.01710778
60	0xbcabb320	-0.020959437
61	0xbd4be8f5	-0.049782712
62	0x3ca2c21b	0.019867947
63	0x3bc587b9	0.0060281423

conv3b.weight f4 [64, 64, 3, 3]
0	0x3c511a96	0.012762686
1	0x3c13f3db	0.009030308
2	0x3d11f0d1	0.03563005
3	0x3cb6a417	0.022295041
4	0xbcb48bd3	-0.02203933
5	0xbd2b8355	-0.041873295
6	0x3d1415e4	0.03615369
7	0x3baf6bef	0.005353443
8	0xbc7e1042	-0.015506806
9	0xbc9bb46c	-0.01900693
10	0xbd29d8df	-0.04146659
11	0xbd16f87d	-0.03685807
12	0xbc8a8964	-0.016911216
13	0x3d232eea	0.039839663
14	0xbc1c48a2	-0.009538801
15	0x38295c3e	4.0378647e-05
16	0xbcc69ce3	-0.024244731
17	0x3c802721	0.015643658
18	0xbbd3f675	-0.006468589
19	0x3d422756	0.047400795
20	0x3cb73aba	0.02236687
21	0x3ce9bf01	0.02853346
22	0xbb9749f4	-0.00461697
23	0xbc27a574	-0.010232318
24	0x3d1a2fa3	0.037643086
25	0xbcd0bb6f	-0.02548
26	0xbd1cd43d	-0.038288344
27	0xbc26467f	-0.0101486435
28	0xbb9dcacc	-0.004815435
29	0x3c4ee8a2	0.012628706
30	0xbcf340e4	-0.029694028
31	0x3c55fcd4	0.013060767
32	0xbc06a84e	-0.008218838
33	0x3ccc0756	0.024905842
34	0xbbdb5565	-0.0066935294
35	0x3d325b65	0.043544192
36	0x3d253fb6	0.040343963
37	0x3ce86716	0.028369468
38	0xbd29b328	-0.041430622
39	0x3ca1a94b	0.019734045
40	0xbd4c33e1	-0.049854163
41	0xbccdae8c	-0.025107644
42	0x3d17c28b	0.037050765
43	0xbc26d26c	-0.010182004
44	0xbd193728	-0.037406117
45	0x3aed820d	0.0018120423
46	0xbd514a77	-0.051096406
47	0xbb6eced3	-0.0036439195
48	0xbc3ddf1b	-0.011588837
49	0xbca5562c	-0.020182692
50	0xbbd69b74	-0.006549293
51	0x3cc25c43	0.023725634
52	0xbd49bdd8	-0.049253315
53	0xbd01c97d	-0.031686295
54	0x3cbabcde	0.022795137
55	0xbd2130b4	-0.039353088
56	0xbb1fa1c0	-0.0024357885
57	0x3ca793fb	0.020456305
58	0xbd009cee	-0.03139966
59	0x3bf7d9c9	0.007563804
60	0xbcf93fd0	-0.030425936
61	0xbcb0237a	-0.021501292
62	0xbd13b382	-0.036059864
63	0xbcde0ca9	-0.027105646
64	0xbc28ed33	-0.010310459
65	0xbd31f55d	-0.043446887
66	0xbd2eef71	-0.042708818
67	0xbc317e00	-0.010833263
68	0x3ba95fa6	0.005168873
69	0xbcbf4f5f	-0.023353277
70	0x3bfd1de2	0.0077245096
71	0xbcc0962d	-0.02350911
72	0xbc049d86	-0.008094197
73	0x3c2b341a	0.010449434
74	0x3cf347af	0.029697267
75	0xbaff1c83	-0.0019463453
76	0xbc94cab7	-0.018163068
77	0xbbd47f25	-0.0064848834
78	0xbcd7dd0c	-0.02635052
79	0xbcba1a43	-0.0227176
80	0x3c214a5d	0.00984439
81	0x3bc1efe5	0.0059184902
82	0xbd08dd97	-0.03341445
83	0xbc7208bf	-0.014772593
84	0xbb95478d	-0.0045556487
85	0x3d16bf15	0.036803324
86	0xbcb5a05b	-0.02217119
87	0xbd1cdf4a	-0.038298883
88	0xbd26d018	-0.040725797
89	0xbc89b686	-0.016810667
90	0x3ccd152b	0.025034508
91	0x3c33ecdb	0.010981764
92	0xbbf23ab8	-0.0073922537
93	0xbc9ae53d	-0.018908137
94	0x3c9fbf94	0.019500531
95	0x3c930dac	0.017950855
96	0xbcf6b5e8	-0.030116037
97	0xbbd49c3e	-0.006488352
98	0x3ca6a421	0.020341935
99	0xbcac3c7d	-0.021024937
100	0xbd1c28da	-0.038124897
101	0x3d07efaf	0.033187564
102	0xbce19107	-0.027534975
103	0xbcf3faf3	-0.029782748
104	0x3bcf1c11	0.0063204844
105	0x3bc0e9d8	0.0058872513
106	0x3d0536d7	0.032523002
107	0xbd12badd	-0.035822738
108	0x3d16321a	0.036668874
109	0x3ca604a9	0.020265894
110	0xbd238936	-0.039925776
111	0xba93c357	-0.0011273426
112	0x3c99d2d3	0.018777287
113	0x3b228743	0.002479986
114	0xbc30badc	-0.010786738
115	0xbc020833	-0.007936525
116	0x3cf366b4	0.029712059
117	0xbd0163d7	-0.031589355
118	0xbcc5fdbe	-0.024168845
119	0xbd2e1787	-0.042502906
120	0x3cf6502a	0.030067522
121	0xbc0f812d	-0.008758825
122	0x3c3d140a	0.011540422
123	0xbc955dfb	-0.01823329
124	0xba842ac8	-0.0010083551
125	0xbc4cbc31	-0.01249604
126	0x3ce12de7	0.027487708
127	0xbbc13634	-0.005896354
128	0x3d4839c2	0.048883207
129	0xbaa929d3	-0.0012906141
130	0xbaea9dd6	-0.0017899822
131	0x3c9b3c42	0.018949632
132	0x3d6044a9	0.05475298
133	0xbb24c48e	-0.002514157
134	0xbd16e290	-0.03683716
135	0x3ce03b82	0.027372126
136	0x3cda5349	0.026651042
137	0x3c75cc9b	0.015002395
138	0x3b84b169	0.0040494693
139	0xbcef4270	-0.029206485
140	0xbc354505	-0.011063819
141	0xbc0cccae	-0.008593721
142	0xbce59e8c	-0.028029703
143	0xbbac6386	-0.0052608876
144	0xbb542cfc	-0.0032375446
145	0xbce6c9a4	-0.028172322
146	0xbb654f48	-0.0034989882
147	0xbc3ce1e6	-0.011528468
148	0xbcf35627	-0.029704167
149	0xbc322685	-0.010873442
150	0xbc2032a2	-0.009777697
151	0x3d4d91bf	0.050187822
152	0xbc307a5e	-0.010771362
153	0xbd06ddda	-0.032926418
154	0xbd16652d	-0.036717582
155	0xbbe02f2c	-0.006841561
156	0x3c7e853a	0.015534693
157	0x3c0083f1	0.007843957
158	0x3d045500	0.032307625
159	0x3cd79b23	0.026319092
160	0x3d1253b4	0.035724357
161	0x3a876f96	0.0010332938
162	0x3c018a01	0.007906438
163	0xb8ac9c3d	-8.230701e-05
164	0xbceaa9e4	-0.028645463
165	0xba457a3e	-0.0007533169
166	0xbccc78d1	-0.024959954
167	0xbd1e6d1a	-0.038678266
168	0x3c71bcea	0.014754513
169	0xbd20d04a	-0.03926114
170	0xbc4fdd49	-0.012687036
171	0xbc6efa87	-0.014586098
172	0x3d38b95e	0.045098655
173	0x3cf8c852	0.030368958
174	0xbc9a00e8	-0.01879926
175	0x3cace0e3	0.021103328
176	0x3b6aee49	0.0035847595
177	0xbbb856bc	-0.005625574
178	0xbca2c7bf	-0.019870637
179	0xbd02f3fc	-0.031970963
180	0xbb84198c	-0.0040313657
181	0x3d2ca307	0.042147662
182	0xbd3d3107	-0.046189334
183	0x3c0ba0b9	0.008522206
184	0xbc0d849d	-0.0086375745
185	0xbca1310a	-0.019676704
186	0x3c881c4a	0.016615052
187	0xbd3a0656	-0.0454162
188	0xbb9b6e91	-0.004743405
189	0xbc374387	-0.011185533
190	0xbd05c619	-0.032659624
191	0xbcb48544	-0.022036202
192	0xbc9b2345	-0.018937716
193	0x3ce6a4c5	0.02815474
194	0x3d15ad2c	0.036542103
195	0xbd0ad93d	-0.03389858
196	0xbab87da0	-0.0014075525
197	0x3b40f59c	0.002944327
198	0xbd1468e3	-0.03623284
199	0xbd3c2818	-0.045936674
200	0xbd35bfa9	-0.044372234
201	0xbc846898	-0.016163155
202	0xbcd04d71	-0.025427552
203	0xbb8752a5	-0.004129725
204	0xbbc74b4e	-0.006081975
205	0xbc921dbe	-0.017836448
206	0x3cd141ec	0.02554413
207	0xbc3beb7c	-0.011469718
208	0xbcd3d234	-0.025857069
209	0x3cbd6f17	0.02312426
210	0x3d164c69	0.036693964
211	0xbc28a87d	-0.010294077
212	0x3700623a	7.652265e-06
213	0xbc05d189	-0.008167633
214	0x3b27fda7	0.0025633366
215	0x3cb82ca0	0.022482216
216	0xbd0549c8	-0.032541066
217	0x3d09fb0b	0.03368668
218	0x3bc96f4d	0.0061473013
219	0x3c878b64	0.016545959
220	0xb9f38f2c	-0.00046455243
221	0xbd4eb9b1	-0.050470058
222	0x3c7e7408	0.015530594
223	0x3c8f0756	0.017459553
224	0xbd0f2969	-0.0349516
225	0x3bd3f301	0.0064681773
226	0xbca40be8	-0.020025209
227	0xbd28153d	-0.04103588
228	0xbcaaa95d	-0.020832712
229	0x3c954dc9	0.018225567
230	0xbca92fbc	-0.020652644
231	0x3d0121d5	0.031526405
232	0xbd1f5e56	-0.038908325
233	0x3d21b88c	0.03948264
234	0xbb3dbf15	-0.0028953005
235	0xbcc73cb9	-0.024320947
236	0x3c8dfc73	0.017332291
237	0xbc02fec1	-0.007995308
238	0xbc16ca31	-0.00920348
239	0x3c926bcc	0.017873667
240	0xba7b58c0	-0.0009588115
241	0x3d0d608a	0.034515895
242	0xbc990835	-0.018680671
243	0xbbc8a5b6	-0.00612327
244	0xb91f57c6	-0.0001519612
245	0x3d0f5856	0.034996353
246	0xbc83e8d4	-0.016102232
247	0x3d02de8c	0.03195052
248	0x3d0e508f	0.034744795
249	0x3b0a12bb	0.0021068293
250	0xbcaacae1	-0.020848693
251	0x3bd3cb48	0.006463442
252	0x3ced1ecd	0.028945351
253	0xbd14e6fc	-0.036353096
254	0xbcf4d1b8	-0.029885158
255	0xbbca70e5	-0.006178009

conv3b.bias f4 [64]
0	0xbc045f91	-0.008079425
1	0xbd374a3d	-0.044748534
2	0xbba93d2b	-0.0051647625
3	0xbca66506	-0.020311844
4	0xbca00033	-0.019531345
5	0x3c55ec4d	0.013056827
6	0x3cc5b8be	0.024135944
7	0xbd10eabc	-0.03538011
8	0x3d280df8	0.041028947
9	0xbce6b368	-0.02816172
10	0x3c208c84	0.009799127
11	0x3c66aeb5	0.014079739
12	0xbc9e1f99	-0.019302176
13	0xbcee368a	-0.02907874
14	0xbd36cb31	-0.044627372
15	0xbd4a8f34	-0.049452975
16	0xbd096682	-0.033545025
17	0xbd3d91c8	-0.046281606
18	0x3d12f5f1	0.03587908
19	0xbb9dbe8a	-0.004813974
20	0x3b490230	0.003067147
21	0xbcdb58e8	-0.026775792
22	0x3c8fe365	0.017564485
23	0xbc383db3	-0.011245179
24	0x3c73445a	0.014847839
25	0xbc4f57da	-0.012655223
26	0x3c40a08e	0.011757029
27	0x3c84c4e8	0.016207173
28	0x3c8ac542	0.016939763
29	0xbd16a6d1	-0.036780182
30	0xbc31447e	-0.0108195525
31	0xbd1231fb	-0.035692196
32	0xbd4432b4	-0.047899917
33	0xbc113dfd	-0.008864877
34	0xbbb1656e	-0.0054137027
35	0x3ce17fe5	0.027526805
36	0xbc9df50c	-0.019281887
37	0xbd2417aa	-0.04006163
38	0xbd26cfe5	-0.040725607
39	0xbc6e5c27	-0.014548338
40	0xbd294e64	-0.041334525
41	0xbce71a60	-0.028210819
42	0x3cfbd2e6	0.030740213
43	0x3caa2234	0.020768262
44	0x3c226625	0.0099120485
45	0xbd13b4f2	-0.036061235
46	0x3d24f768	0.040275007
47	0x3ce09d1f	0.027418671
48	0xbd0023ce	-0.031284146
49	0xbcea2b53	-0.028585112
50	0x3d0b2fee	0.033981256
51	0x3b06646c	0.0020506633
52	0xbd243a6b	-0.040094774
53	0x3c0c1fe5	0.008552526
54	0xbce568f8	-0.028004155
55	0xbd41a2b6	-0.047274314
56	0xbd356e07	-0.044294383
57	0xbd5dd227	-0.054155495
58	0x3c2f6e9b	0.010707523
59	0xbd026feb	-0.031845015
60	0xbc983355	-0.018579165
61	0x3c736cdd	0.014857498
62	0xbd2ad907	-0.04171088
63	0xbd47c4f2	-0.048771806
